…
We recommend you upgrade now or ensure your notebook will continue to use TensorFlow 1.x via the %tensorflow_version 1.x magic: more info.
1.15.0
2.2.4-tf
Downloading data from https://www.cs.toronto.edu/~kriz/cifar-100-python.tar.gz
169009152/169001437 [==============================] - 8s 0us/step
<tensorflow.python.keras.engine.sequential.Sequential object at 0x7fc1c28b7c50>
Model: "sequential_1"
_________________________________________________________________
Layer (type)                 Output Shape              Param #   
=================================================================
conv2d_4 (Conv2D)            (None, 15, 15, 64)        3136      
_________________________________________________________________
batch_normalization_3 (Batch (None, 15, 15, 64)        256       
_________________________________________________________________
activation_2 (Activation)    (None, 15, 15, 64)        0         
_________________________________________________________________
conv2d_5 (Conv2D)            (None, 6, 6, 128)         131200    
_________________________________________________________________
batch_normalization_4 (Batch (None, 6, 6, 128)         512       
_________________________________________________________________
activation_3 (Activation)    (None, 6, 6, 128)         0         
_________________________________________________________________
conv2d_6 (Conv2D)            (None, 6, 6, 256)         33024     
_________________________________________________________________
batch_normalization_5 (Batch (None, 6, 6, 256)         1024      
_________________________________________________________________
conv2d_7 (Conv2D)            (None, 6, 6, 256)         65792     
_________________________________________________________________
flatten_1 (Flatten)          (None, 9216)              0         
_________________________________________________________________
dense_2 (Dense)              (None, 100)               921700    
=================================================================
Total params: 1,156,644
Trainable params: 1,155,748
Non-trainable params: 896
_________________________________________________________________
None
Train on 50000 samples
Epoch 1/50
50000/50000 [==============================] - 5s 95us/sample - loss: 3.6458 - acc: 0.1848
Epoch 2/50
50000/50000 [==============================] - 5s 91us/sample - loss: 3.0102 - acc: 0.2894
…
