…
  (gn3): GroupNorm(32, 64, eps=1e-05, affine=True)
  (conv4): Conv2d(64, 32, kernel_size=(1, 1), stride=(1, 1))
  (gn4): GroupNorm(16, 32, eps=1e-05, affine=True)
  (flatten): Flatten()
  (fdn): Linear(in_features=512, out_features=10, bias=True)
  (drop): Dropout2d(p=0.5, inplace=False)
  (pool): MaxPool2d(kernel_size=4, stride=2, padding=1, dilation=1, ceil_mode=False)
)
----------------------------------------------------------------
        Layer (type)               Output Shape         Param #
================================================================
            Conv2d-1           [-1, 16, 16, 16]             784
         GroupNorm-2           [-1, 16, 16, 16]              32
         MaxPool2d-3             [-1, 16, 8, 8]               0
            Conv2d-4             [-1, 64, 4, 4]          16,448
         GroupNorm-5             [-1, 64, 4, 4]             128
            Conv2d-6             [-1, 64, 4, 4]           4,160
         GroupNorm-7             [-1, 64, 4, 4]             128
            Conv2d-8             [-1, 32, 4, 4]           2,080
         GroupNorm-9             [-1, 32, 4, 4]              64
          Flatten-10                  [-1, 512]               0
           Linear-11                   [-1, 10]           5,130
================================================================
Total params: 28,954
Trainable params: 28,954
Non-trainable params: 0
----------------------------------------------------------------
Input size (MB): 0.01
Forward/backward pass size (MB): 0.11
Params size (MB): 0.11
Estimated Total Size (MB): 0.24
----------------------------------------------------------------
None
[1/50] [0/1563] Classification Loss: 2.314060
…
